…
2021-06-29 13:01:42.455879: I tensorflow/core/platform/profile_utils/cpu_utils.cc:114] CPU Frequency: 2400000000 Hz
starting readin
1
2
3
4
5
6
7
8
9
10
11
12
13
14
15
16
17
18
19
20
21
22
23
24
25
26
27
28
29
30
31
32
33
34
35
36
37
38
39
40
41
42
43
44
45
46
47
48
49
50
51
52
53
54
55
56
57
58
59
60
61
62
63
64
65
66
67
68
69
70
71
72
73
74
75
76
77
78
79
(80, 112, 1)
Normalizing training data
(80, 112, 1)
Model: "sequential"
_________________________________________________________________
Layer (type)                 Output Shape              Param #   
=================================================================
conv1d (Conv1D)              (None, 56, 64)            512       
_________________________________________________________________
dropout (Dropout)            (None, 56, 64)            0         
_________________________________________________________________
conv1d_1 (Conv1D)            (None, 28, 32)            14368     
_________________________________________________________________
conv1d_transpose (Conv1DTran (None, 56, 32)            7200      
_________________________________________________________________
dropout_1 (Dropout)          (None, 56, 32)            0         
_________________________________________________________________
conv1d_transpose_1 (Conv1DTr (None, 112, 64)           14400     
_________________________________________________________________
conv1d_transpose_2 (Conv1DTr (None, 112, 1)            449       
_________________________________________________________________
cropping1d (Cropping1D)      (None, 111, 1)            0         
=================================================================
Total params: 36,929
Trainable params: 36,929
Non-trainable params: 0
_________________________________________________________________
(80, 112, 1)
Epoch 1/100
Traceback (most recent call last):
  File "/work/noaa/da/svarga/anomDetec/AnomDetecEnsem/AnomDetec.py", line 146, in <module>
    history=model.fit(
  File "/work/noaa/da/svarga/pyvenv/firstEnv/lib/python3.9/site-packages/tensorflow/python/keras/engine/training.py", line 1183, in fit
…
