…
2021-06-22 12:30:30.850408: I tensorflow/compiler/mlir/mlir_graph_optimization_pass.cc:176] None of the MLIR Optimization Passes are enabled (registered 2)
2021-06-22 12:30:30.936857: I tensorflow/core/platform/profile_utils/cpu_utils.cc:114] CPU Frequency: 2400000000 Hz
2021-06-22 12:30:30.936857: I tensorflow/core/platform/profile_utils/cpu_utils.cc:114] CPU Frequency: 2400000000 Hz
(40, 100, 2)
Model: "sequential"
_________________________________________________________________
Layer (type)                 Output Shape              Param #   
=================================================================
conv1d (Conv1D)              (None, 50, 32)            480       
_________________________________________________________________
dropout (Dropout)            (None, 50, 32)            0         
_________________________________________________________________
conv1d_1 (Conv1D)            (None, 25, 16)            3600      
_________________________________________________________________
conv1d_transpose (Conv1DTran (None, 50, 16)            1808      
_________________________________________________________________
dropout_1 (Dropout)          (None, 50, 16)            0         
_________________________________________________________________
conv1d_transpose_1 (Conv1DTr (None, 100, 32)           3616      
_________________________________________________________________
conv1d_transpose_2 (Conv1DTr (None, 100, 1)            225       
=================================================================
Total params: 9,729
Trainable params: 9,729
Non-trainable params: 0
_________________________________________________________________
Epoch 1/50
(40, 100, 2)
Model: "sequential"
_________________________________________________________________
Layer (type)                 Output Shape              Param #   
=================================================================
conv1d (Conv1D)              (None, 50, 32)            480       
_________________________________________________________________
dropout (Dropout)            (None, 50, 32)            0         
_________________________________________________________________
conv1d_1 (Conv1D)            (None, 25, 16)            3600      
_________________________________________________________________
conv1d_transpose (Conv1DTran (None, 50, 16)            1808      
_________________________________________________________________
dropout_1 (Dropout)          (None, 50, 16)            0         
_________________________________________________________________
conv1d_transpose_1 (Conv1DTr (None, 100, 32)           3616      
_________________________________________________________________
conv1d_transpose_2 (Conv1DTr (None, 100, 1)            225       
=================================================================
Total params: 9,729
Trainable params: 9,729
Non-trainable params: 0
_________________________________________________________________
Epoch 1/50
1/1 [==============================] - ETA: 0s - loss: 27.17791/1 [==============================] - 4s 4s/step - loss: 27.1779 - val_loss: 25.1389
…
