…
2021-06-25 14:09:29.228400: I tensorflow/compiler/mlir/mlir_graph_optimization_pass.cc:176] None of the MLIR Optimization Passes are enabled (registered 2)
2021-06-25 14:09:29.375586: I tensorflow/core/platform/profile_utils/cpu_utils.cc:114] CPU Frequency: 2400000000 Hz
2021-06-25 14:09:29.375702: I tensorflow/core/platform/profile_utils/cpu_utils.cc:114] CPU Frequency: 2400000000 Hz
(560, 112, 1)
(560, 112, 1)
Model: "sequential"
_________________________________________________________________
Layer (type)                 Output Shape              Param #   
=================================================================
conv1d (Conv1D)              (None, 56, 64)            512       
_________________________________________________________________
dropout (Dropout)            (None, 56, 64)            0         
_________________________________________________________________
conv1d_1 (Conv1D)            (None, 28, 32)            14368     
_________________________________________________________________
conv1d_transpose (Conv1DTran (None, 56, 32)            7200      
_________________________________________________________________
dropout_1 (Dropout)          (None, 56, 32)            0         
_________________________________________________________________
conv1d_transpose_1 (Conv1DTr (None, 112, 64)           14400     
_________________________________________________________________
conv1d_transpose_2 (Conv1DTr (None, 112, 1)            449       
=================================================================
Total params: 36,929
Trainable params: 36,929
Non-trainable params: 0
_________________________________________________________________
(560, 112, 1)
Epoch 1/100
(560, 112, 1)
(560, 112, 1)
Model: "sequential"
_________________________________________________________________
Layer (type)                 Output Shape              Param #   
=================================================================
conv1d (Conv1D)              (None, 56, 64)            512       
_________________________________________________________________
dropout (Dropout)            (None, 56, 64)            0         
_________________________________________________________________
conv1d_1 (Conv1D)            (None, 28, 32)            14368     
_________________________________________________________________
conv1d_transpose (Conv1DTran (None, 56, 32)            7200      
_________________________________________________________________
dropout_1 (Dropout)          (None, 56, 32)            0         
_________________________________________________________________
conv1d_transpose_1 (Conv1DTr (None, 112, 64)           14400     
_________________________________________________________________
conv1d_transpose_2 (Conv1DTr (None, 112, 1)            449       
=================================================================
Total params: 36,929
Trainable params: 36,929
Non-trainable params: 0
_________________________________________________________________
(560, 112, 1)
Epoch 1/100
1/5 [=====>........................] - ETA: 9s - loss: 1.01873/5 [=================>............] - ETA: 0s - loss: 0.74435/5 [==============================] - ETA: 0s - loss: 1.00825/5 [==============================] - 3s 37ms/step - loss: 1.0082
…
